
lstm1(
  (A1_1): Sequential(
    (0): Conv1d(531, 120, kernel_size=(1,), stride=(1,))
  )
  (A1_2): Sequential(
    (0): Conv1d(531, 120, kernel_size=(3,), stride=(1,), padding=(1,))
  )
  (A2_1): Sequential(
    (0): Conv1d(240, 64, kernel_size=(1,), stride=(1,))
  )
  (A2_2): Sequential(
    (0): Conv1d(240, 64, kernel_size=(3,), stride=(1,), padding=(1,))
  )
  (pooling1): MaxPool1d(kernel_size=3, stride=3, padding=0, dilation=1, ceil_mode=False)
  (lstm): LSTM(128, 64)
  (lay1): Linear(in_features=320, out_features=32, bias=True)
  (lay2): Linear(in_features=32, out_features=2, bias=True)
  (softmax): Softmax(dim=1)
)
(530, 2655)
(6228, 2655)
530
epoch: 10, loss: 0.6509
label: 0.8623
epoch: 20, loss: 0.6259
label: 0.8736
epoch: 30, loss: 0.6062
label: 0.883
epoch: 40, loss: 0.5867
label: 0.8925
epoch: 50, loss: 0.5715
label: 0.8925
epoch: 60, loss: 0.5577
label: 0.8906
epoch: 70, loss: 0.5453
label: 0.8943
epoch: 80, loss: 0.5338
label: 0.8962
…
epoch: 4860, loss: 0.3178
label: 1.0
epoch: 4870, loss: 0.3178
label: 1.0
epoch: 4880, loss: 0.3178
label: 1.0
epoch: 4890, loss: 0.3178
label: 1.0
epoch: 4900, loss: 0.3178
label: 1.0
epoch: 4910, loss: 0.3178
label: 1.0
epoch: 4920, loss: 0.3178
label: 1.0
epoch: 4930, loss: 0.3178
label: 1.0
epoch: 4940, loss: 0.3177
label: 1.0
epoch: 4950, loss: 0.3177
label: 1.0
epoch: 4960, loss: 0.3177
label: 1.0
epoch: 4970, loss: 0.3177
label: 1.0
epoch: 4980, loss: 0.3177
label: 1.0
epoch: 4990, loss: 0.3177
label: 1.0
epoch: 5000, loss: 0.3177
label: 1.0
[0.00125]
lstm2(
  (A1_1): Sequential(
    (0): Conv1d(531, 120, kernel_size=(1,), stride=(1,))
    (1): BatchNorm1d(120, eps=1e-05, momentum=0.1, affine=True, track_running_stats=True)
  )
  (A1_2): Sequential(
    (0): Conv1d(531, 120, kernel_size=(3,), stride=(1,), padding=(1,))
    (1): BatchNorm1d(120, eps=1e-05, momentum=0.1, affine=True, track_running_stats=True)
  )
  (A2_1): Sequential(
    (0): Conv1d(240, 64, kernel_size=(1,), stride=(1,))
    (1): BatchNorm1d(64, eps=1e-05, momentum=0.1, affine=True, track_running_stats=True)
  )
  (A2_2): Sequential(
    (0): Conv1d(240, 64, kernel_size=(3,), stride=(1,), padding=(1,))
    (1): BatchNorm1d(64, eps=1e-05, momentum=0.1, affine=True, track_running_stats=True)
  )
  (pooling1): MaxPool1d(kernel_size=3, stride=3, padding=0, dilation=1, ceil_mode=False)
  (A3_1): Sequential(
    (0): Conv1d(128, 32, kernel_size=(1,), stride=(1,))
    (1): BatchNorm1d(32, eps=1e-05, momentum=0.1, affine=True, track_running_stats=True)
  )
  (A3_2): Sequential(
    (0): Conv1d(128, 32, kernel_size=(3,), stride=(1,), padding=(1,))
    (1): BatchNorm1d(32, eps=1e-05, momentum=0.1, affine=True, track_running_stats=True)
  )
  (lstm): LSTM(64, 64)
  (lay1): Linear(in_features=320, out_features=32, bias=True)
  (lay2): Linear(in_features=32, out_features=8, bias=True)
  (lay3): Linear(in_features=8, out_features=2, bias=True)
  (softmax): Softmax(dim=1)
)
(530, 2655)
(6228, 2655)
530
epoch: 10, loss: 0.7001
label: 0.5
epoch: 20, loss: 0.6977
label: 0.5
epoch: 30, loss: 0.6954
label: 0.5
epoch: 40, loss: 0.6932
label: 0.5
epoch: 50, loss: 0.691
label: 0.5
epoch: 60, loss: 0.6889
label: 0.5
epoch: 70, loss: 0.6869
label: 0.5
epoch: 80, loss: 0.6848
label: 0.5
epoch: 90, loss: 0.6828
…
epoch: 4860, loss: 0.3192
label: 0.9981
epoch: 4870, loss: 0.3192
label: 0.9981
epoch: 4880, loss: 0.3192
label: 0.9981
epoch: 4890, loss: 0.3192
label: 0.9981
epoch: 4900, loss: 0.3192
label: 0.9981
epoch: 4910, loss: 0.3192
label: 0.9981
epoch: 4920, loss: 0.3192
label: 0.9981
epoch: 4930, loss: 0.3192
label: 0.9981
epoch: 4940, loss: 0.3192
label: 0.9981
epoch: 4950, loss: 0.3192
label: 0.9981
epoch: 4960, loss: 0.3192
label: 0.9981
epoch: 4970, loss: 0.3192
label: 0.9981
epoch: 4980, loss: 0.3192
label: 0.9981
epoch: 4990, loss: 0.3192
label: 0.9981
epoch: 5000, loss: 0.3192
label: 0.9981
[0.00125]
lstm4(
  (conv1): Conv1d(20, 16, kernel_size=(3,), stride=(1,), padding=(1,))
  (conv2): Conv1d(16, 32, kernel_size=(3,), stride=(1,), padding=(1,))
  (conv3): Conv1d(32, 64, kernel_size=(3,), stride=(1,), padding=(1,))
  (pool): MaxPool1d(kernel_size=2, stride=2, padding=0, dilation=1, ceil_mode=False)
  (penult1): Linear(in_features=320, out_features=32, bias=True)
  (A1_1): Sequential(
    (0): Conv1d(531, 120, kernel_size=(1,), stride=(1,))
  )
  (A1_2): Sequential(
    (0): Conv1d(531, 120, kernel_size=(3,), stride=(1,), padding=(1,))
  )
  (A2_1): Sequential(
    (0): Conv1d(240, 64, kernel_size=(1,), stride=(1,))
  )
  (A2_2): Sequential(
    (0): Conv1d(240, 64, kernel_size=(3,), stride=(1,), padding=(1,))
  )
  (pooling1): MaxPool1d(kernel_size=3, stride=3, padding=0, dilation=1, ceil_mode=False)
  (relu): ReLU()
  (lstm): LSTM(128, 64)
  (lay1): Linear(in_features=320, out_features=32, bias=True)
  (lay2): Linear(in_features=64, out_features=32, bias=True)
  (lay3): Linear(in_features=32, out_features=2, bias=True)
  (softmax): Softmax(dim=1)
)
(530, 2655)
(6228, 2655)
530
epoch: 10, loss: 0.689
label: 0.5038
epoch: 20, loss: 0.6839
label: 0.6774
epoch: 30, loss: 0.6807
label: 0.8094
epoch: 40, loss: 0.6775
label: 0.866
epoch: 50, loss: 0.6741
label: 0.883
epoch: 60, loss: 0.6713
label: 0.8811
epoch: 70, loss: 0.6686
label: 0.8849
epoch: 80, loss: 0.666
label: 0.8849
…
epoch: 4860, loss: 0.3163
label: 1.0
epoch: 4870, loss: 0.3163
label: 1.0
epoch: 4880, loss: 0.3163
label: 1.0
epoch: 4890, loss: 0.3163
label: 1.0
epoch: 4900, loss: 0.3163
label: 1.0
epoch: 4910, loss: 0.3163
label: 1.0
epoch: 4920, loss: 0.3163
label: 1.0
epoch: 4930, loss: 0.3163
label: 1.0
epoch: 4940, loss: 0.3163
label: 1.0
epoch: 4950, loss: 0.3163
label: 1.0
epoch: 4960, loss: 0.3163
label: 1.0
epoch: 4970, loss: 0.3163
label: 1.0
epoch: 4980, loss: 0.3163
label: 1.0
epoch: 4990, loss: 0.3163
label: 1.0
epoch: 5000, loss: 0.3163
label: 1.0
[0.00125]
epoch:5000
lstm1(
  (A1_1): Sequential(
    (0): Conv1d(531, 120, kernel_size=(1,), stride=(1,))
  )
  (A1_2): Sequential(
    (0): Conv1d(531, 120, kernel_size=(3,), stride=(1,), padding=(1,))
  )
  (A2_1): Sequential(
    (0): Conv1d(240, 64, kernel_size=(1,), stride=(1,))
  )
  (A2_2): Sequential(
    (0): Conv1d(240, 64, kernel_size=(3,), stride=(1,), padding=(1,))
  )
  (pooling1): MaxPool1d(kernel_size=3, stride=3, padding=0, dilation=1, ceil_mode=False)
  (lstm): LSTM(128, 64)
  (lay1): Linear(in_features=320, out_features=32, bias=True)
  (lay2): Linear(in_features=32, out_features=2, bias=True)
  (softmax): Softmax(dim=1)
)
epoch:5000
lstm1(
  (A1_1): Sequential(
    (0): Conv1d(531, 120, kernel_size=(1,), stride=(1,))
  )
  (A1_2): Sequential(
    (0): Conv1d(531, 120, kernel_size=(3,), stride=(1,), padding=(1,))
  )
  (A2_1): Sequential(
    (0): Conv1d(240, 64, kernel_size=(1,), stride=(1,))
  )
  (A2_2): Sequential(
    (0): Conv1d(240, 64, kernel_size=(3,), stride=(1,), padding=(1,))
  )
  (pooling1): MaxPool1d(kernel_size=3, stride=3, padding=0, dilation=1, ceil_mode=False)
  (lstm): LSTM(128, 64)
  (lay1): Linear(in_features=320, out_features=32, bias=True)
  (lay2): Linear(in_features=32, out_features=2, bias=True)
  (softmax): Softmax(dim=1)
)
(530, 2655)
(6228, 2655)
530
epoch:5000
lstm2(
  (A1_1): Sequential(
    (0): Conv1d(531, 120, kernel_size=(1,), stride=(1,))
    (1): BatchNorm1d(120, eps=1e-05, momentum=0.1, affine=True, track_running_stats=True)
  )
  (A1_2): Sequential(
    (0): Conv1d(531, 120, kernel_size=(3,), stride=(1,), padding=(1,))
    (1): BatchNorm1d(120, eps=1e-05, momentum=0.1, affine=True, track_running_stats=True)
  )
  (A2_1): Sequential(
    (0): Conv1d(240, 64, kernel_size=(1,), stride=(1,))
    (1): BatchNorm1d(64, eps=1e-05, momentum=0.1, affine=True, track_running_stats=True)
  )
  (A2_2): Sequential(
    (0): Conv1d(240, 64, kernel_size=(3,), stride=(1,), padding=(1,))
    (1): BatchNorm1d(64, eps=1e-05, momentum=0.1, affine=True, track_running_stats=True)
  )
  (pooling1): MaxPool1d(kernel_size=3, stride=3, padding=0, dilation=1, ceil_mode=False)
  (A3_1): Sequential(
    (0): Conv1d(128, 32, kernel_size=(1,), stride=(1,))
    (1): BatchNorm1d(32, eps=1e-05, momentum=0.1, affine=True, track_running_stats=True)
  )
  (A3_2): Sequential(
    (0): Conv1d(128, 32, kernel_size=(3,), stride=(1,), padding=(1,))
    (1): BatchNorm1d(32, eps=1e-05, momentum=0.1, affine=True, track_running_stats=True)
  )
  (lstm): LSTM(64, 64)
  (lay1): Linear(in_features=320, out_features=32, bias=True)
  (lay2): Linear(in_features=32, out_features=8, bias=True)
  (lay3): Linear(in_features=8, out_features=2, bias=True)
  (softmax): Softmax(dim=1)
)
(530, 2655)
(6228, 2655)
530
epoch:5000
lstm3(
  (A1_1): Sequential(
    (0): Conv1d(531, 120, kernel_size=(1,), stride=(1,))
  )
  (A1_2): Sequential(
    (0): Conv1d(531, 120, kernel_size=(3,), stride=(1,), padding=(1,))
  )
  (A2_1): Sequential(
    (0): Conv1d(240, 64, kernel_size=(1,), stride=(1,))
  )
  (A2_2): Sequential(
    (0): Conv1d(240, 64, kernel_size=(3,), stride=(1,), padding=(1,))
  )
  (pooling1): MaxPool1d(kernel_size=3, stride=3, padding=0, dilation=1, ceil_mode=False)
  (lstm): LSTM(128, 64)
  (lay1): Linear(in_features=320, out_features=32, bias=True)
  (lay2): Linear(in_features=32, out_features=2, bias=True)
  (softmax): Softmax(dim=1)
)
(530, 2655)
(6228, 2655)
530
epoch:5000
lstm4(
  (conv1): Conv1d(20, 16, kernel_size=(3,), stride=(1,), padding=(1,))
  (conv2): Conv1d(16, 32, kernel_size=(3,), stride=(1,), padding=(1,))
  (conv3): Conv1d(32, 64, kernel_size=(3,), stride=(1,), padding=(1,))
  (pool): MaxPool1d(kernel_size=2, stride=2, padding=0, dilation=1, ceil_mode=False)
  (penult1): Linear(in_features=320, out_features=32, bias=True)
  (A1_1): Sequential(
    (0): Conv1d(531, 120, kernel_size=(1,), stride=(1,))
  )
  (A1_2): Sequential(
    (0): Conv1d(531, 120, kernel_size=(3,), stride=(1,), padding=(1,))
  )
  (A2_1): Sequential(
    (0): Conv1d(240, 64, kernel_size=(1,), stride=(1,))
  )
  (A2_2): Sequential(
    (0): Conv1d(240, 64, kernel_size=(3,), stride=(1,), padding=(1,))
  )
  (pooling1): MaxPool1d(kernel_size=3, stride=3, padding=0, dilation=1, ceil_mode=False)
  (relu): ReLU()
  (lstm): LSTM(128, 64)
  (lay1): Linear(in_features=320, out_features=32, bias=True)
  (lay2): Linear(in_features=64, out_features=32, bias=True)
  (lay3): Linear(in_features=32, out_features=2, bias=True)
  (softmax): Softmax(dim=1)
)
(530, 2655)
(6228, 2655)
530
epoch:5000
lstm5(
  (conv1): Conv1d(20, 16, kernel_size=(3,), stride=(1,), padding=(1,))
  (conv2): Conv1d(16, 32, kernel_size=(3,), stride=(1,), padding=(1,))
  (conv3): Conv1d(32, 64, kernel_size=(3,), stride=(1,), padding=(1,))
  (pool): MaxPool1d(kernel_size=2, stride=2, padding=0, dilation=1, ceil_mode=False)
  (penult1): Linear(in_features=320, out_features=32, bias=True)
  (A1_1): Sequential(
    (0): Conv1d(531, 120, kernel_size=(1,), stride=(1,))
  )
  (A1_2): Sequential(
    (0): Conv1d(531, 120, kernel_size=(3,), stride=(1,), padding=(1,))
  )
  (A2_1): Sequential(
    (0): Conv1d(240, 64, kernel_size=(1,), stride=(1,))
  )
  (A2_2): Sequential(
    (0): Conv1d(240, 64, kernel_size=(3,), stride=(1,), padding=(1,))
  )
  (pooling1): MaxPool1d(kernel_size=3, stride=3, padding=0, dilation=1, ceil_mode=False)
  (relu): ReLU()
  (lstm): LSTM(128, 64)
  (lay1): Linear(in_features=320, out_features=32, bias=True)
  (lay2): Linear(in_features=64, out_features=32, bias=True)
  (lay3): Linear(in_features=32, out_features=2, bias=True)
  (softmax): Softmax(dim=1)
)
(530, 2655)
(6228, 2655)
530
epoch:5000
lstm6(
  (conv1): Conv1d(20, 16, kernel_size=(3,), stride=(1,), padding=(1,))
  (conv2): Conv1d(16, 32, kernel_size=(3,), stride=(1,), padding=(1,))
  (conv3): Conv1d(32, 64, kernel_size=(3,), stride=(1,), padding=(1,))
  (pool): MaxPool1d(kernel_size=2, stride=2, padding=0, dilation=1, ceil_mode=False)
  (penult1): Linear(in_features=320, out_features=32, bias=True)
  (relu): ReLU()
  (A1_1): Sequential(
    (0): Conv1d(531, 120, kernel_size=(1,), stride=(1,))
  )
  (A1_2): Sequential(
    (0): Conv1d(531, 120, kernel_size=(3,), stride=(1,), padding=(1,))
  )
  (A2_1): Sequential(
    (0): Conv1d(240, 64, kernel_size=(1,), stride=(1,))
  )
  (A2_2): Sequential(
    (0): Conv1d(240, 64, kernel_size=(3,), stride=(1,), padding=(1,))
  )
  (pooling1): MaxPool1d(kernel_size=3, stride=3, padding=0, dilation=1, ceil_mode=False)
  (lstm): LSTM(128, 64)
  (lay1): Linear(in_features=320, out_features=32, bias=True)
  (lay2): Linear(in_features=64, out_features=32, bias=True)
  (lay3): Linear(in_features=32, out_features=2, bias=True)
  (softmax): Softmax(dim=1)
)
(530, 2655)
(6228, 2655)
530
epoch:5000
lstm7(
  (conv1): Conv1d(20, 16, kernel_size=(3,), stride=(1,), padding=(1,))
  (conv2): Conv1d(16, 32, kernel_size=(3,), stride=(1,), padding=(1,))
  (conv3): Conv1d(32, 64, kernel_size=(3,), stride=(1,), padding=(1,))
  (pool): MaxPool1d(kernel_size=2, stride=2, padding=0, dilation=1, ceil_mode=False)
  (penult1): Linear(in_features=320, out_features=32, bias=True)
  (relu): ReLU()
  (A1_1): Sequential(
    (0): Conv1d(531, 120, kernel_size=(1,), stride=(1,))
  )
  (A1_2): Sequential(
    (0): Conv1d(531, 120, kernel_size=(3,), stride=(1,), padding=(1,))
  )
  (A2_1): Sequential(
    (0): Conv1d(240, 64, kernel_size=(1,), stride=(1,))
  )
  (A2_2): Sequential(
    (0): Conv1d(240, 64, kernel_size=(3,), stride=(1,), padding=(1,))
  )
  (pooling1): MaxPool1d(kernel_size=3, stride=3, padding=0, dilation=1, ceil_mode=False)
  (lstm): LSTM(128, 64)
  (lay1): Linear(in_features=320, out_features=32, bias=True)
  (lay2): Linear(in_features=64, out_features=32, bias=True)
  (lay3): Linear(in_features=32, out_features=2, bias=True)
  (softmax): Softmax(dim=1)
)
epoch:5000
lstm1(
  (A1_1): Sequential(
    (0): Conv1d(531, 120, kernel_size=(1,), stride=(1,))
  )
  (A1_2): Sequential(
    (0): Conv1d(531, 120, kernel_size=(3,), stride=(1,), padding=(1,))
  )
  (A2_1): Sequential(
    (0): Conv1d(240, 64, kernel_size=(1,), stride=(1,))
  )
  (A2_2): Sequential(
    (0): Conv1d(240, 64, kernel_size=(3,), stride=(1,), padding=(1,))
  )
  (pooling1): MaxPool1d(kernel_size=3, stride=3, padding=0, dilation=1, ceil_mode=False)
  (lstm): LSTM(128, 64)
  (lay1): Linear(in_features=320, out_features=32, bias=True)
  (lay2): Linear(in_features=32, out_features=2, bias=True)
  (softmax): Softmax(dim=1)
)
(530, 2655)
(6228, 2655)
530
epoch:5000
lstm1(
  (A1_1): Sequential(
    (0): Conv1d(531, 120, kernel_size=(1,), stride=(1,))
  )
  (A1_2): Sequential(
    (0): Conv1d(531, 120, kernel_size=(3,), stride=(1,), padding=(1,))
  )
  (A2_1): Sequential(
    (0): Conv1d(240, 64, kernel_size=(1,), stride=(1,))
  )
  (A2_2): Sequential(
    (0): Conv1d(240, 64, kernel_size=(3,), stride=(1,), padding=(1,))
  )
  (pooling1): MaxPool1d(kernel_size=3, stride=3, padding=0, dilation=1, ceil_mode=False)
  (lstm): LSTM(128, 64)
  (lay1): Linear(in_features=320, out_features=32, bias=True)
  (lay2): Linear(in_features=32, out_features=2, bias=True)
  (softmax): Softmax(dim=1)
)
(530, 2655)
(6228, 2655)
530
epoch: 5010, loss: 0.3177
label: 1.0
epoch: 5020, loss: 0.3177
label: 1.0
epoch: 5030, loss: 0.3177
label: 1.0
epoch: 5040, loss: 0.3177
label: 1.0
epoch: 5050, loss: 0.3177
label: 1.0
epoch: 5060, loss: 0.3177
label: 1.0
epoch: 5070, loss: 0.3177
label: 1.0
epoch: 5080, loss: 0.3177
label: 1.0
epoch: 5090, loss: 0.3177
label: 1.0
epoch: 5100, loss: 0.3177
label: 1.0
epoch: 5110, loss: 0.3177
label: 1.0
epoch: 5120, loss: 0.3177
label: 1.0
epoch: 5130, loss: 0.3176
label: 1.0
epoch: 5140, loss: 0.3176
label: 1.0
epoch: 5150, loss: 0.3176
label: 1.0
epoch: 5160, loss: 0.3176
label: 1.0
epoch: 5170, loss: 0.3176
label: 1.0
epoch: 5180, loss: 0.3176
label: 1.0
epoch: 5190, loss: 0.3176
label: 1.0
epoch: 5200, loss: 0.3176
label: 1.0
[0.001]
epoch:5000
lstm1(
  (A1_1): Sequential(
    (0): Conv1d(531, 120, kernel_size=(1,), stride=(1,))
  )
  (A1_2): Sequential(
    (0): Conv1d(531, 120, kernel_size=(3,), stride=(1,), padding=(1,))
  )
  (A2_1): Sequential(
    (0): Conv1d(240, 64, kernel_size=(1,), stride=(1,))
  )
  (A2_2): Sequential(
    (0): Conv1d(240, 64, kernel_size=(3,), stride=(1,), padding=(1,))
  )
  (pooling1): MaxPool1d(kernel_size=3, stride=3, padding=0, dilation=1, ceil_mode=False)
  (lstm): LSTM(128, 64)
  (lay1): Linear(in_features=320, out_features=32, bias=True)
  (lay2): Linear(in_features=32, out_features=2, bias=True)
  (softmax): Softmax(dim=1)
)
(530, 2655)
(6228, 2655)
530
epoch: 5010, loss: 0.3177
label: 1.0
epoch: 5020, loss: 0.3177
label: 1.0
epoch: 5030, loss: 0.3177
label: 1.0
epoch: 5040, loss: 0.3177
label: 1.0
epoch: 5050, loss: 0.3177
label: 1.0
epoch: 5060, loss: 0.3177
label: 1.0
epoch: 5070, loss: 0.3177
label: 1.0
epoch: 5080, loss: 0.3177
label: 1.0
epoch: 5090, loss: 0.3177
label: 1.0
epoch: 5100, loss: 0.3177
label: 1.0
epoch: 5110, loss: 0.3177
label: 1.0
epoch: 5120, loss: 0.3177
label: 1.0
epoch: 5130, loss: 0.3176
label: 1.0
epoch: 5140, loss: 0.3176
label: 1.0
epoch:5000
lstm1(
  (A1_1): Sequential(
    (0): Conv1d(531, 120, kernel_size=(1,), stride=(1,))
  )
  (A1_2): Sequential(
    (0): Conv1d(531, 120, kernel_size=(3,), stride=(1,), padding=(1,))
  )
  (A2_1): Sequential(
    (0): Conv1d(240, 64, kernel_size=(1,), stride=(1,))
  )
  (A2_2): Sequential(
    (0): Conv1d(240, 64, kernel_size=(3,), stride=(1,), padding=(1,))
  )
  (pooling1): MaxPool1d(kernel_size=3, stride=3, padding=0, dilation=1, ceil_mode=False)
  (lstm): LSTM(128, 64)
  (lay1): Linear(in_features=320, out_features=32, bias=True)
  (lay2): Linear(in_features=32, out_features=2, bias=True)
  (softmax): Softmax(dim=1)
)
(530, 2655)
(6228, 2655)
530
epoch: 5010, loss: 0.3177
label: 1.0
epoch: 5020, loss: 0.3177
label: 1.0
epoch: 5030, loss: 0.3177
label: 1.0
epoch: 5040, loss: 0.3177
label: 1.0
epoch: 5050, loss: 0.3177
label: 1.0
epoch: 5060, loss: 0.3177
label: 1.0
epoch: 5070, loss: 0.3177
label: 1.0
epoch: 5080, loss: 0.3177
label: 1.0
epoch: 5090, loss: 0.3177
label: 1.0
epoch: 5100, loss: 0.3177
label: 1.0
epoch: 5110, loss: 0.3177
label: 1.0
epoch: 5120, loss: 0.3177
label: 1.0
epoch:5000
lstm1(
  (A1_1): Sequential(
    (0): Conv1d(531, 120, kernel_size=(1,), stride=(1,))
  )
  (A1_2): Sequential(
    (0): Conv1d(531, 120, kernel_size=(3,), stride=(1,), padding=(1,))
  )
  (A2_1): Sequential(
    (0): Conv1d(240, 64, kernel_size=(1,), stride=(1,))
  )
  (A2_2): Sequential(
    (0): Conv1d(240, 64, kernel_size=(3,), stride=(1,), padding=(1,))
  )
  (pooling1): MaxPool1d(kernel_size=3, stride=3, padding=0, dilation=1, ceil_mode=False)
  (lstm): LSTM(128, 64)
  (lay1): Linear(in_features=320, out_features=32, bias=True)
  (lay2): Linear(in_features=32, out_features=2, bias=True)
  (softmax): Softmax(dim=1)
)
(530, 2655)
(6228, 2655)
530
epoch: 5010, loss: 0.3177
label: 1.0
epoch: 5020, loss: 0.3177
label: 1.0
epoch: 5030, loss: 0.3177
label: 1.0
epoch: 5040, loss: 0.3177
label: 1.0
epoch: 5050, loss: 0.3177
label: 1.0
epoch: 5060, loss: 0.3177
label: 1.0
epoch: 5070, loss: 0.3177
label: 1.0
epoch: 5080, loss: 0.3177
label: 1.0
epoch: 5090, loss: 0.3177
…
